…
.5, mosaic=0.0, mixup=0.0, copy_paste=0.0, cfg=None, v5loader=False, tracker=botsort.yaml, save_dir=runs/segment/train\n","Downloading https://ultralytics.com/assets/Arial.ttf to /root/.config/Ultralytics/Arial.ttf...\n","100%|â–ˆâ–ˆâ–ˆâ–ˆâ–ˆâ–ˆâ–ˆâ–ˆâ–ˆâ–ˆ| 755k/755k [00:00<00:00, 18.0MB/s]\n","\u001b[34m\u001b[1mTensorBoard: \u001b[0mStart with 'tensorboard --logdir runs/segment/train', view at http://localhost:6006/\n","\n","                   from  n    params  module                                       arguments                     \n","  0                  -1  1      1392  ultralytics.nn.modules.Conv                  [3, 48, 3, 2]                 \n","  1                  -1  1     41664  ultralytics.nn.modules.Conv                  [48, 96, 3, 2]                \n","  2                  -1  2    111360  ultralytics.nn.modules.C2f                   [96, 96, 2, True]             \n","  3                  -1  1    166272  ultralytics.nn.modules.Conv                  [96, 192, 3, 2]               \n","  4                  -1  4    813312  ultralytics.nn.modules.C2f                   [192, 192, 4, True]           \n","  5                  -1  1    664320  ultralytics.nn.modules.Conv                  [192, 384, 3, 2]              \n","  6                  -1  4   3248640  ultralytics.nn.modules.C2f                   [384, 384, 4, True]           \n","  7                  -1  1   1991808  ultralytics.nn.modules.Conv                  [384, 576, 3, 2]              \n","  8                  -1  2   3985920  ultralytics.nn.modules.C2f                   [576, 576, 2, True]           \n","  9                  -1  1    831168  ultralytics.nn.modules.SPPF                  [576, 576, 5]                 \n"," 10                  -1  1         0  torch.nn.modules.upsampling.Upsample         [None, 2, 'nearest']          \n"," 11             [-1, 6]  1         0  ultralytics.nn.modules.Concat                [1]                           \n"," 12                  -1  2   1993728  ultralytics.nn.modules.C2f                   [960, 384, 2]                 \n"," 13                  -1  1         0  torch.nn.modules.upsampling.Upsample         [None, 2, 'nearest']          \n"," 14             [-1, 4]  1         0  ultralytics.nn.modules.Concat                [1]                           \n"," 15                  -1  2    517632  ultralytics.nn.modules.C2f                   [576, 192, 2]                 \n"," 16                  -1  1    332160  ultralytics.nn.modules.Conv                  [192, 192, 3, 2]              \n"," 17            [-1, 12]  1         0  ultralytics.nn.modules.Concat                [1]                           \n"," 18                  -1  2   1846272  ultralytics.nn.modules.C2f                   [576, 384, 2]                 \n"," 19                  -1  1   1327872  ultralytics.nn.modules.Conv                  [384, 384, 3, 2]              \n"," 20             [-1, 9]  1         0  ultralytics.nn.modules.Concat                [1]                           \n"," 21                  -1  2   4207104  ultralytics.nn.modules.C2f                   [960, 576, 2]                 \n"," 22        [15, 18, 21]  1   5159603  ultralytics.nn.modules.Segment               [1, 32, 192, [192, 384, 576]] \n","YOLOv8m-seg summary: 331 layers, 27240227 parameters, 27240211 gradients, 110.4 GFLOPs\n","\n","Transferred 537/537 items from pretrained weights\n","\u001b[34m\u001b[1mAMP: \u001b[0mrunning Automatic Mixed Precision (AMP) checks with YOLOv8n...\n","Downloading https://github.com/ultralytics/assets/releases/download/v0.0.0/yolov8n.pt to yolov8n.pt...\n","100%|â–ˆâ
…
